checkpoint_CNN1.pt (torch_old, 933131 bytes, 45 tensors)

cnn0.conv1.weight f4 [128, 1, 4, 21]
000000 ce a4 96 3e bd 70 0f 3f 74 59 a0 be 82 2d c5 3d
       0.2942261 0.560314 -0.31318247 0.096278206
000010 b3 04 84 be ef a9 43 3e 08 0d ae 3e 6a 39 8e 3d
       -0.25784835 0.19107793 0.33994317 0.069445446
000020 14 68 89 3d 6e 15 5f be 9f 90 c0 3c 79 b8 95 3e
       0.067093045 -0.21785519 0.02350646 0.29242304
000030 39 05 46 be 51 e1 a9 bd 44 b1 45 bc be 68 cf bd
       -0.1933793 -0.08294929 -0.012066189 -0.101274
000040 e3 f9 08 3e 81 a9 97 be 1a 5b f4 3e 09 2f 66 3e
       0.13376574 -0.2962151 0.47725755 0.2247888
000050 20 14 0c 3d 43 c4 65 3e 8f ba 8d be f1 ea af be
       0.03419888 0.22438149 -0.27681395 -0.34358934
000060 84 e6 99 bc 30 26 d6 3d 2f 55 56 be 1c a5 d4 3e
       -0.018786676 0.104565024 -0.20930932 0.41532218
000070 1f d1 06 3e 3e f7 9a be 49 24 91 3b 7b 7f 08 be
       0.13165711 -0.30266756 0.0044293744 -0.1332988
000080 e2 75 6e be dc d7 ce bd 89 79 68 be 1e 90 8b bd
       -0.23287156 -0.10099766 -0.22702612 -0.068145975
000090 56 83 2a 3e ad 42 fe 3e bc 21 cf 3e e8 fb 40 3c
       0.16651663 0.49660245 0.40455425 0.011778809
0000a0 6d 77 5d 3e 83 67 87 3d 76 55 d8 bd d9 43 04 3d
       0.21627589 0.0661154 -0.105631754 0.032291267
0000b0 36 2e 87 3d 44 c3 9f bc 21 55 bf 3c 6a 50 aa 3d
       0.06600611 -0.01950229 0.023356022 0.08316119
0000c0 29 d5 b9 be 90 62 c9 3e 0e 0c 98 be 1d de ee bc
       -0.3629544 0.3933301 -0.29696697 -0.029158646
0000d0 33 1d 85 3e 10 99 a6 3d 7c b3 4d be f6 d2 53 bd
       0.2599884 0.08134663 -0.20087999 -0.05171486
0000e0 3b 90 eb 3d 5a 6c 05 3f 13 7b 6c bd 28 8c f6 3d
       0.11502119 0.52118456 -0.05773456 0.120384514
0000f0 65 7f cc be d6 b8 b5 bd 07 f3 2d be 0d 9f 3f be
       -0.39940944 -0.08873145 -0.16987239 -0.18713017
000100 c9 f6 07 be 4d 62 c2 3e 50 c3 e0 bc 1c f1 4b bd
       -0.13277735 0.37965623 -0.027436882 -0.049790487
000110 2e 37 02 bc 6c 9a 56 3e b8 f7 2e bd f6 47 d0 3e
       -0.007947726 0.20957345 -0.04271671 0.40679902
000120 c2 83 f7 3e 24 28 a1 bd dd 41 7e be 9f 6c a4 be
       0.4834271 -0.07868984 -0.24829812 -0.3211412
000130 58 1c 68 be 59 a3 86 3e 3d bf c7 3d 92 69 6a be
       -0.22667062 0.262965 0.09753273 -0.22891834
000140 14 ef 87 be 57 32 7d bd 10 67 33 3e be 1a 32 3d
       -0.2654959 -0.061815586 0.17519784 0.043482535
000150 5d 05 63 be 59 94 41 be 15 78 b2 be 16 ee e0 be
       -0.22170015 -0.18904246 -0.3485724 -0.43931645
000160 f4 0c 85 3e 1f 84 89 be 9a 69 d5 be 2d 57 d4 be
       0.25986445 -0.26858613 -0.4168213 -0.4147276
000170 43 cf de be 4f 9c 8e be ab 8b 0b 3e 14 38 e2 be
       -0.43517503 -0.2785363 0.13627498 -0.4418341
000180 9e b7 dd be 40 a5 03 bf f7 ca 8e be b3 97 56 3d
       -0.4330415 -0.51424026 -0.27889225 0.052390765
000190 4b 19 59 3d 42 d1 d2 be c9 d0 08 3f df 4d 98 bd
       0.053002637 -0.41175276 0.5344358 -0.07436728
0001a0 57 00 ae be 3e fd 07 3d 5f 31 b2 be c4 33 3b be
       -0.33984634 0.033200495 -0.34803292 -0.18281466
0001b0 04 5a 1c 3e f0 e3 b6 be 11 3d c0 be 55 cb bc be
       0.15268713 -0.35720778 -0.3754659 -0.3687388
0001c0 0b f5 31 3e 70 c3 f8 be b5 4e 90 3d 9b ab 12 3d
       0.17378633 -0.48586607 0.07046262 0.035808187
0001d0 80 2f 01 be e4 62 11 3e 88 2b 2c bc 22 e5 10 be
       -0.12615776 0.1419788 -0.0105084255 -0.14149907
0001e0 fe ea 9a be ee 68 4f 3e 4f a9 30 3e 0f 58 f5 be
       -0.3025741 0.20254871 0.17252086 -0.47918746
0001f0 ad 79 00 be 58 01 80 3d 5f ef 90 bc 55 2c fa 3d
       -0.12546416 0.06250256 -0.017692266 0.12215487
000200 b0 1e 89 be cd 8d e6 bd 7b 1c 21 be 95 7d 5b be
       -0.26781225 -0.11257515 -0.1573352 -0.21434624
000210 14 09 ef 3e df 17 a3 be 0f e1 b4 bc 23 67 f8 3d
       0.46686614 -0.3185415 -0.022079973 0.12129047
000220 db 44 12 3e 9e c1 44 3d f8 0c d6 3c d0 bf c2 3d
       0.14284079 0.04803621 0.02612923 0.095092416
000230 94 9e c2 3d 66 11 96 be 28 a5 87 be 2f 50 e7 bc
       0.095029026 -0.2931015 -0.26493192 -0.028236477
000240 a6 df 36 be 59 94 ca 3b 55 58 71 3d a8 03 51 3e
       -0.17858753 0.006182235 0.05892213 0.20411551
000250 78 60 5b 3d 3f 05 1b be 31 1e b3 be ad e5 eb be
       0.053558797 -0.1513872 -0.34983972 -0.46073666
000260 dd bf a2 3d 2b d5 e8 be f6 75 2b be 81 a8 04 be
       0.07946751 -0.45475134 -0.16744217 -0.12954904
000270 19 76 96 be 35 e7 06 be 0c c4 c4 3c 8f b9 c5 3e
       -0.29386976 -0.13174136 0.024019264 0.38618132
000280 fe fc 30 bd 97 11 94 bd b2 df 99 be d9 15 c1 bd
       -0.043210022 -0.072299175 -0.30053478 -0.09427995
000290 e3 d6 0c be 22 ea 68 3d 49 c7 39 3d ec 32 04 bd
       -0.13753848 0.05686391 0.04535607 -0.032275125
0002a0 b0 de 07 bb dd 8d b8 be 74 70 96 3d d1 57 7d bc
       -0.0020732097 -0.36045733 0.073456675 -0.015462832
0002b0 57 a0 b9 3e e6 4e 6f be af cd 91 be e3 ac 88 3e
       0.36255142 -0.23369941 -0.28477237 0.26694402
0002c0 3a d0 88 be e7 5a 80 be 73 7d c9 be 17 76 5b 3d
       -0.26721364 -0.25069353 -0.39353523 0.053579416
0002d0 0e a8 af be 90 46 83 be 08 0a d6 be b9 ec 97 be
       -0.34307903 -0.25639772 -0.41804528 -0.29672793
0002e0 0e 40 b8 be 5b 3a 60 3e ec f0 0f be 0d 61 77 3c
       -0.3598637 0.21897261 -0.14056748 0.015098822
0002f0 28 f9 d5 be 9b 4e b1 3e 2e 25 d6 3e ee 22 9c 3c
       -0.41791654 0.34630284 0.4182524 0.019059625
000300 26 77 91 be 65 ee 0b 3e 8e 5c a9 3e 69 66 92 be
       -0.28411216 0.13665159 0.33078426 -0.28593758
000310 2a 89 64 be c4 79 bd be ad 79 20 be 0e 48 50 3d
       -0.22317949 -0.37006962 -0.15671416 0.050849967
000320 98 43 97 be 6c 26 a5 be 9d 57 8f be 9e 85 13 be
       -0.29543757 -0.32255876 -0.2799653 -0.1440644
000330 eb 38 a5 3c c0 94 b8 be 48 73 ba be f7 5b d0 bd
       0.020168742 -0.36050987 -0.36416078 -0.10173791
000340 e2 71 77 be 19 45 aa be d7 fe 8f bd 7f cf b7 3e
       -0.24164537 -0.33255842 -0.07031029 0.35900494
000350 32 29 a4 be ba 73 d9 3b c8 ec 90 bd 4d 06 2f bd
       -0.3206268 0.00663611 -0.070764124 -0.04273062
000360 70 d6 26 be 30 fb 2d bb eb ae b7 be 99 97 be bc
       -0.16292739 -0.0026547424 -0.3587564 -0.023265647
000370 f4 e4 dc 3e d4 80 15 3d 0e ef ac 3e 21 06 b6 be
       0.43143427 0.036499813 0.33776134 -0.3555155
000380 51 60 8d be 39 fc a7 bc ba 89 a2 3d d5 64 2d bc
       -0.27612546 -0.020506011 0.079364255 -0.010583122
000390 4d 07 1f be 3b 3a 03 3e 6a 86 b3 bb a8 f1 73 3d
       -0.15530129 0.12815182 -0.00547867 0.059556633
0003a0 db 0a bf bc 6f ee e1 3d a3 1d 20 be b4 26 a7 bd
       -0.023320606 0.11031806 -0.15636306 -0.08161679
0003b0 91 6f cc 3e 17 c6 6c be c4 91 96 be a7 c4 03 3e
       0.39928868 -0.2312244 -0.29408085 0.12867986
0003c0 47 44 79 be 2c f8 26 3e 68 50 c1 bd 5e 48 da bd
       -0.24342452 0.16305608 -0.094391644 -0.10658334
0003d0 c5 30 b5 be 44 e0 cb bd a7 9c 1d bd 87 3e 1f be
       -0.3538877 -0.09954885 -0.038479473 -0.15551196
0003e0 c3 46 6a be a7 01 92 be f9 10 ed 3e 2f 42 33 be
       -0.22878556 -0.28516886 0.46302012 -0.17505716
0003f0 20 b7 9c be a9 1a bb bb 1f 8d d8 be 3d be 53 be
       -0.30608463 -0.0057099652 -0.42295167 -0.20678039

cnn0.conv1.bias f4 [128]
000000 26 11 2d bc 6a 66 89 3d a9 b6 53 3d 87 20 b3 bd
       -0.010563171 0.06708987 0.05168787 -0.087464385
000010 e6 a6 8f 3e 97 93 13 3e f9 e2 77 3e 4f 86 21 bd
       0.2805702 0.1441177 0.24207677 -0.039434727
000020 c6 30 53 bd b4 09 58 3e 42 2c d1 3d 54 d6 79 3d
       -0.051560186 0.21097451 0.1021352 0.060995415
000030 e1 e6 f8 3d 42 8a 9f 3e 7b df c4 3d 19 07 02 be
       0.12153412 0.3116017 0.09612938 -0.1269802
000040 d0 50 fc 3c 0e a3 8f be ea cd 2e bc fe 36 ab 3e
       0.030800253 -0.28054088 -0.010669211 0.33440393
000050 ff a5 ce bd b7 c2 3e 3e df 2b d5 bd 76 62 ae 3e
       -0.10090255 0.18628965 -0.10408758 0.34059495
000060 7b ad ba 3a 5b ab 3a 3d e4 e9 34 be 91 18 79 bd
       0.0014242375 0.045573574 -0.17667347 -0.060814444
000070 4c 20 01 bd d6 ee a5 bd c4 88 83 3e 61 51 9c be
       -0.03152494 -0.08102195 0.2569028 -0.30530837
000080 68 f0 eb be 1e 89 61 3e e8 db 04 bd 7d 85 bb bd
       -0.46081853 0.22024962 -0.03243628 -0.0915632
000090 9f 79 14 3d 1c cc 2d 3e 52 8d 2d 3e a1 d2 aa 3e
       0.0362488 0.16972393 0.1694844 0.33363822
0000a0 99 46 9b be a2 f0 40 3e 59 60 ae be 32 3d b8 be
       -0.303273 0.18841794 -0.34057882 -0.35984188
0000b0 cf fe 27 be 5b 18 8f be 9d 33 9f 3c fd 8c 7d 3d
       -0.16405796 -0.2794827 0.01943379 0.061902035
0000c0 3c 81 82 bd ac 36 d2 3e d5 30 cc bd 6b 32 37 be
       -0.06372306 0.41057336 -0.099702515 -0.17890327
0000d0 0a ff 05 3e 34 bf 24 bd e7 76 a4 bd 72 ca 81 3e
       0.13085571 -0.040221408 -0.08030491 0.25349766
0000e0 69 4c b7 bd 6f ce c2 3e 41 93 9d 3d 3b 62 66 bd
       -0.08950121 0.3804812 0.07694102 -0.056246024
0000f0 55 6e 5c bc 0c dc f6 3d 61 d9 32 bd f6 ab 35 be
       -0.01345404 0.12053689 -0.04366434 -0.17741379
000100 c5 bb 38 be 91 05 e1 bc 6f c2 6c be 50 71 aa 3e
       -0.18040378 -0.027468475 -0.23121046 0.33289576
000110 c9 f7 83 be 58 53 98 be ed 4d 26 bd 6b cb 8c 3d
       -0.25774983 -0.29751086 -0.04060166 0.068747364
000120 f8 68 4e 3d 3e ee 15 3d 90 14 18 3e 43 4d 91 be
       0.050393075 0.03660416 0.14851594 -0.2837926
000130 a8 37 8a 3e 1a bc 46 3e 66 4f a2 3d 85 c2 17 3e
       0.26995587 0.19407693 0.079253 0.14820297
000140 63 4c a9 bd 77 22 44 be 5e 4b a3 3e c9 65 3a be
       -0.08266523 -0.19153772 0.31893438 -0.1820289
000150 d2 53 2f be f2 70 a9 3e 0d ac 9a be f7 47 4c 3e
       -0.17121819 0.33093983 -0.3020939 0.19949327
000160 cd c0 ea bd 29 61 11 3d 66 62 d5 bd f1 75 2d 3e
       -0.11462555 0.03549305 -0.10419159 0.16939522
000170 48 17 8d 3e d0 95 0c bd f0 85 77 bd 82 38 68 be
       0.27556825 -0.03432256 -0.060430467 -0.22677806
000180 42 26 2a be 03 b0 bd bc e5 ca c3 3e 70 b0 a9 be
       -0.16616157 -0.023155218 0.38240734 -0.33142424
000190 f3 f5 00 3e 00 68 93 bc 13 02 a1 be e5 86 3d 3e
       0.12593822 -0.017993927 -0.31446895 0.1850849
0001a0 2d d7 f4 bc 7e c9 b8 bd da 99 1e be 12 41 31 be
       -0.02988776 -0.090228066 -0.15488377 -0.17309979
0001b0 c6 31 be 3e 69 bb 0f 3e 7e 73 01 bf e8 d2 b6 be
       0.3714735 0.14036335 -0.5056685 -0.35707784
0001c0 e9 50 53 bd f2 8b 0e 3e 0d 41 90 3d b8 ea 01 be
       -0.051590834 0.13920572 0.070436575 -0.12687194
0001d0 d4 f8 84 be f7 88 ae bd 26 98 03 bf 93 2c 57 be
       -0.2597109 -0.08522218 -0.51404035 -0.21013097
0001e0 a5 6a 56 3e d9 74 d2 3b d4 70 c7 bd ab 9a f5 3d
       0.20939119 0.0064226207 -0.09738317 0.11992391
0001f0 09 b6 98 bd a3 52 56 be 74 96 86 be a3 ab c4 bc
       -0.074565955 -0.20929961 -0.26286662 -0.024007624

cnn0.conv2.weight f4 [128, 1, 8, 21]
000000 26 a4 0f bc 1b 60 5f be 2c 86 0a bf 50 63 8a be
       -0.008767163 -0.21814005 -0.5411098 -0.27028894
000010 4e d0 66 3e b1 ae c8 be 77 41 f7 3e ab 0f 2a bd
       0.225404 -0.3919578 0.48292133 -0.04151885
000020 90 a2 87 3e d9 70 7d bd 3a 6d 90 3c 1a 35 95 3e
       0.26491213 -0.061875198 0.017630208 0.29142076
000030 f6 93 a2 be bb 91 f5 bc ca 41 a1 3e 61 1f 8e bd
       -0.3175351 -0.029976716 0.31495506 -0.06939579
000040 41 1b da be 4a 47 88 be 62 b8 d7 3e 1f 4c df bd
       -0.42598918 -0.2661689 0.4213286 -0.10903191
000050 90 54 fa 3e 34 7a 1f 3e d3 86 01 3e 54 af bd 3a
       0.4889264 0.1557396 0.12649088 0.0014471808
000060 e5 3f 65 3e 22 dc 9f be a4 6a 6f 3e 94 e6 a2 be
       0.22387655 -0.31222636 0.23380524 -0.31816542
000070 bc 0e c8 bd 4f 46 71 3e 22 9c 8c bd 85 4b 90 be
       -0.09768435 0.23561977 -0.068657175 -0.28182617
000080 ee 42 9a 3e 5a a2 94 be 9d 7c 49 3e d5 05 ac be
       0.30129188 -0.29030114 0.19676442 -0.335982
000090 1d 14 ce bd a1 9c 94 3e 8f 72 60 3e b6 ac 00 3e
       -0.1006243 0.29025748 0.219187 0.12565884
0000a0 d3 7f b9 3d 96 72 f0 3c d5 30 b7 3d 0e b9 c4 be
       0.09057584 0.029351514 0.08944861 -0.38422436
0000b0 b5 5e 39 be 3b 0b 90 be 60 99 97 bd 86 fd 37 3e
       -0.18102534 -0.28133568 -0.07402301 0.17967805
0000c0 67 df f2 bd 42 0d 98 3e ed 52 03 be dd 1b 85 3e
       -0.11859017 0.29697615 -0.12824602 0.2599782
0000d0 e8 43 b9 be 72 c0 4c 3e b1 fe 01 3e 3f ca f8 3c
       -0.3618462 0.19995287 0.12694813 0.030369876
0000e0 af ef 3b 3e 80 07 4b 3e e2 34 b9 be c3 5b d4 be
       0.18353151 0.1982708 -0.3617316 -0.4147626
0000f0 e5 f0 47 3f 0c c0 95 3d 9a 13 20 be a7 de 94 bd
       0.7810195 0.07312021 -0.15632477 -0.0726903
000100 6e f6 40 bd e5 af b8 bd 8a 2e 8d 3e c1 83 4e 3e
       -0.047110014 -0.09017924 0.2757457 0.20167448
000110 46 f5 a9 be 8e d4 14 be c5 22 07 be 3b 5d 88 3d
       -0.3319494 -0.14534208 -0.13196857 0.06658407
000120 df 87 58 be 04 5b 94 be 2a 50 cd bd d9 42 9e bd
       -0.2114558 -0.2897569 -0.10025056 -0.07727594
000130 49 c3 9e bd d3 01 e6 3d f9 9a 01 3f 96 45 c6 3e
       -0.077520914 0.11230817 0.50627095 0.38724965
000140 a0 ee c6 bd db 63 d7 bd e8 a0 47 bd 5b ea 17 3d
       -0.09713483 -0.10517093 -0.048737437 0.037088733
000150 55 25 63 3e a6 88 83 3a 2b c1 b7 be 6e b1 8e bd
       0.2218221 0.0010035231 -0.35889563 -0.06967436
000160 7e 6e 60 be a4 43 43 be e5 f2 e5 be 27 07 81 3e
       -0.2191715 -0.19068772 -0.44911876 0.2520077
000170 a1 8f 4c be 86 75 21 3d a7 64 bf be 2f 21 c9 3c
       -0.19976665 0.03941872 -0.3738148 0.024551956
000180 8d 92 f0 3d 33 ab 1e 3e f5 e9 1b be e7 1f fa 3d
       0.11746702 0.15494995 -0.15225966 0.12213116
000190 a5 c0 bc be 64 ab 23 3f 28 12 59 3c 6c a8 86 3e
       -0.36865726 0.63933396 0.013248958 0.2630037
0001a0 0e bf 1a 3e 6e bf fd bd 83 79 8e bd 9a 3c 79 be
       0.15111944 -0.12390028 -0.0695677 -0.24339524
0001b0 e8 6c ca bd db c2 50 be b9 72 49 be 10 d4 9a bd
       -0.098840535 -0.20386831 -0.1967267 -0.07559979
0001c0 0e 9b d2 3e e8 2e 64 3d 14 b0 32 3e a1 51 72 3c
       0.41133922 0.055708796 0.17449981 0.01478997
0001d0 d0 3a 0f 3e 8c 72 ad 3e f1 0e bf 3d 4f df 19 be
       0.13987279 0.33876455 0.09329022 -0.15026592
0001e0 bc 6f c2 3e e2 7f 1d 3e 8b 9f 5b 3e 01 90 c9 be
       0.37975872 0.15380815 0.2144758 -0.3936768
0001f0 20 7a 47 3d 15 fd 94 be 9c 6b 69 be 03 64 0c 3e
       0.04870045 -0.29099336 -0.22794956 0.13710026
000200 bd fc 8b 3e 66 e6 58 be a5 e6 b9 be 31 12 7b be
       0.27341262 -0.2118164 -0.3630878 -0.24518658
000210 a8 fb d9 3e 2d 24 19 3e 85 a8 1d be 5a 6c 50 3e
       0.4257481 0.14955206 -0.15396316 0.20353833
000220 ca 8f 08 3f 0d 01 f1 be 5c 27 ba be 59 5d ba 3e
       0.53344405 -0.47071114 -0.36358154 0.36399344
000230 9d f3 8c 3d f7 b4 87 3e 4c df 57 3e c7 92 d7 be
       0.06882403 0.26505253 0.21081275 -0.4210417
000240 d5 e9 ef 3d ab 18 af bc 80 80 20 be ac a8 8d 3e
       0.11714522 -0.021374067 -0.15674019 0.2766775
000250 8e ab f0 be ae dd 45 3e 89 35 4e 3c a7 42 84 be
       -0.47005886 0.19322845 0.012586006 -0.25832102
000260 2a e3 e1 3d f5 f5 0f be 94 1e 1e 3e a7 5b ba be
       0.11029656 -0.14058669 0.15441352 -0.3639805
000270 46 bb 87 bd 09 4b e4 3d 48 a1 4f bd 0c 6a ef 3d
       -0.066275164 0.11147124 -0.05069092 0.11690149
000280 73 70 ad be 6d b6 e0 be 18 3f 94 3c 9c 36 95 3e
       -0.33874854 -0.4388918 0.018096492 0.29143226
000290 33 00 fb 3d c3 ac 91 3e 1f 1d 04 bb 87 27 0a 3f
       0.122558974 0.2845212 -0.002015896 0.53966564
0002a0 b4 9c 3b 3e e8 aa af 3e 88 ad 6b be c9 69 38 bc
       0.18321496 0.3431008 -0.23015416 -0.01125569
0002b0 70 a9 3d 3e ad f3 45 3e 81 34 5e bd 25 7b 98 3e
       0.18521667 0.19331236 -0.05424929 0.29781452
0002c0 5e 09 33 38 2a 9c 80 3e b8 97 5d be 9b c3 fb bd
       4.268565e-05 0.25119144 -0.21639907 -0.12293168
0002d0 47 bf 8a be 84 72 88 be dd cd 9b be 93 a5 9a be
       -0.27099058 -0.26649868 -0.304305 -0.30204448
0002e0 99 cd a0 3e ae cf b4 3e aa 60 e1 bd e2 bf 7f bd
       0.3140686 0.35314697 -0.11004765 -0.062438853
0002f0 1f ce 36 be e4 52 9d 3d ca 8d cd 3d 30 a6 d0 be
       -0.17852066 0.07681826 0.1003681 -0.4075179
000300 5b d0 80 3e 0e 61 fd 3d d4 4e 77 3e 12 07 0b be
       0.25158963 0.12372027 0.24151164 -0.13576916
000310 d6 09 0b 3e 7a 1c a7 3e 19 c0 1c 3e 90 b2 67 be
       0.13577971 0.32638913 0.15307654 -0.2262671
000320 7c aa c2 be 5b 63 95 bd 44 68 07 3e 98 80 28 be
       -0.38020694 -0.07294341 0.13223368 -0.16455305
000330 29 54 2a be e4 2a 52 3e fe e9 06 3c 7c 0d 8d 3e
       -0.16633667 0.20524174 0.008234499 0.2754935
000340 ad 32 76 3e 6e 7c 13 3e ab ae 8d be 15 53 0c 3e
       0.24042769 0.14402935 -0.27672324 0.13703568
000350 a9 fb 2f 3e 52 c6 63 be d0 33 58 3e c1 46 1c 3e
       0.17185844 -0.22243622 0.21113515 0.15261365
000360 56 47 0a bf fd 6c a7 3e 9f 47 ec 3c dd ae 05 3e
       -0.540151 0.3270034 0.028842745 0.13054986
000370 b6 4c b2 3e 5b 8d 69 bb eb 3b 8c 3e bd 1f 33 bd
       0.3482415 -0.0035637233 0.27389464 -0.04373144
000380 02 0c 55 3d 4a 40 b2 bd 49 a0 47 be 26 4e 2d 3e
       0.052013405 -0.087036684 -0.19494738 0.16924343
000390 9a 6e 04 3e fe 30 c4 bd 62 76 76 bd 37 d0 5d 3e
       0.12932816 -0.09579657 -0.060171492 0.21661459
0003a0 4d 81 13 3f fd e5 75 be 1c 33 b7 3d 18 ad 53 be
       0.5761917 -0.24013515 0.08945295 -0.20671499
0003b0 d6 22 db 3e 03 ec 95 be 68 49 19 bc a8 6f 5a 3d
       0.42800015 -0.29281625 -0.00935588 0.05332914
0003c0 83 f1 67 be 8b 9c ca be 0d a9 c5 3d 1d af 66 be
       -0.22650723 -0.39572558 0.096513845 -0.22527738
0003d0 8f 52 9e bd de 46 03 be ac e5 2a bd a3 8f 6a 3d
       -0.077305906 -0.12820002 -0.04172294 0.05726589
0003e0 e9 27 a6 3e 65 e5 3e 3e db 38 5b 3e db 8c 7d be
       0.32452324 0.18642195 0.21408407 -0.24760763
0003f0 99 76 36 be 1e 45 7b be e8 e4 32 3f 31 07 dd be
       -0.17818679 -0.24538085 0.69880533 -0.4316955

cnn0.conv2.bias f4 [128]
000000 3f 13 a3 3e 49 7c 71 be 10 2d 67 bd 38 5a 93 3e
       0.3185062 -0.23582567 -0.05643946 0.2877977
000010 ff 67 ba 3e e9 60 f0 be 7a 95 18 3d 2a 73 97 bd
       0.36407468 -0.46948937 0.037251927 -0.07395013
000020 91 d4 d7 3e 64 e8 82 3e fe 4d 5e be b7 94 c6 3e
       0.42154363 0.25567925 -0.21709439 0.38785335
000030 e3 8f 47 bd 0b 19 c9 bc fe 56 5d 3d db b1 25 bf
       -0.048721205 -0.024548074 0.05403804 -0.6472451
000040 0c 5d 23 3e 72 e5 03 be 6f 85 2b 3b 5b ad 88 3e
       0.15953463 -0.12880495 0.0026172062 0.2669476
000050 40 66 09 be f0 b1 3c 3e 0d 65 01 be 63 3d 06 3e
       -0.13417912 0.18427253 -0.12636204 0.13109355
000060 7b ea 7e be a7 11 0c 3c 06 33 cd be ef 52 99 3d
       -0.24894135 0.0085491305 -0.4007799 0.074865215
000070 95 59 53 be 1f c5 7f 3c f4 4e 3c 3d f4 9a 42 3e
       -0.20639642 0.015610962 0.045973733 0.19004422
000080 0c 77 45 3d 63 c8 f8 bd 17 40 9d be ef 25 af 3e
       0.048209235 -0.12147596 -0.3071296 0.3420863
000090 f8 6a f2 3e 70 c3 1c be 58 73 8b be c1 03 c8 3e
       0.47347236 -0.15308928 -0.27236438 0.39065364
0000a0 c5 de 59 be 6c f1 97 be 22 bb 0a 3f 54 e5 0e be
       -0.21276386 -0.29676378 0.5419179 -0.13954669
0000b0 d7 ab e0 be 03 ac a3 be 4e 13 30 3d 33 19 44 be
       -0.43881103 -0.31967172 0.04298716 -0.19150238
0000c0 db dc 45 3e a9 af e4 3e c1 ac 87 be 72 b4 97 3e
       0.19322531 0.44665268 -0.26498988 0.29629856
0000d0 16 1a 69 be 2c d4 a9 be 92 1e 88 3e 61 5d 1f bd
       -0.22763857 -0.33169687 0.26585823 -0.038907412
0000e0 c5 ec 1b 3e e9 f8 9b 3e 0b 29 9d be bc 84 84 bc
       0.15227039 0.3046334 -0.30695376 -0.016176574
0000f0 ea c5 a0 be c9 15 f8 be 6f 2d ee 3d a8 c1 8f be
       -0.31400996 -0.4845412 0.116297595 -0.28077435
000100 85 86 a0 bd 18 83 92 3e 48 40 90 be 3e 3d 10 3e
       -0.078381576 0.28615642 -0.28174043 0.14085862
000110 2b 63 30 3e 87 5a 70 be 1c 21 38 bd c5 50 91 bd
       0.1722533 -0.23472033 -0.04495345 -0.07095484
000120 0e 8c a1 bd 35 b4 4d be c7 6b d6 bd b8 3d 09 bf
       -0.078880414 -0.20088275 -0.10469776 -0.536098
000130 19 69 0d 3d 3f 20 59 bd 5a 99 95 3e c7 a2 8c 3d
       0.034524057 -0.053009268 0.2921856 0.06866985
000140 7f b3 85 3b 3e 85 9c bd 08 94 03 bf 6c 76 5b bd
       0.0040802355 -0.076426014 -0.5139775 -0.053579733
000150 6c 07 f8 3e 58 1b 8c bd f5 da 9c be 22 21 63 be
       0.48443162 -0.06841153 -0.306358 -0.22180608
000160 a2 30 cf be a1 f3 e0 bd 51 b7 3e be 18 6e ee bd
       -0.4046679 -0.109839685 -0.18624617 -0.116420925
000170 0c 5b 30 be 22 d6 97 bd b3 5f 38 3c 4a 23 c5 be
       -0.17222232 -0.074138895 0.011253285 -0.38503486
000180 29 df 1e 3e e4 2d db 3d 04 9d 82 be 2b bb d6 3e
       0.15514816 0.10702112 -0.25510418 0.41939673
000190 c1 4d 0d 3f c3 e5 3f be fa 30 73 3d be 5a 80 be
       0.5519677 -0.18739991 0.05937288 -0.2506923
0001a0 db 4b 33 3e ab d5 cd 3e 3a c4 de 3d 58 f4 77 bc
       0.17509405 0.40202078 0.10877271 -0.01513394
0001b0 8d a8 ea ba e2 58 bf 3e 8a 5b 5e 3e 90 82 9f be
       -0.0017903015 0.373725 0.21714607 -0.311543
0001c0 ef 58 c0 3d a4 bf 8d 3e cc 88 3c 3e cc 1c 77 3e
       0.09391963 0.27685273 0.18411559 0.24132079
0001d0 b5 63 31 3e 4f e2 83 3d b9 3b 37 3e dc 08 d6 be
       0.17323191 0.06439649 0.17893876 -0.41803634
0001e0 45 01 2d 3e e9 ed 8a 3d d8 6f 01 3f 67 05 ba bd
       0.16895016 0.06783659 0.50561285 -0.09083062
0001f0 b0 27 24 3d 71 fe 34 be 4a 91 3b be d1 35 fa bd
       0.04007691 -0.17675187 -0.18317142 -0.12217296

cnn0.conv3.weight f4 [128, 1, 16, 21]
000000 c5 12 6f 3d 37 75 53 be ad 15 0e be 8d dd 49 be
       0.05836751 -0.20650183 -0.13875456 -0.19713421
000010 fd 12 2b 3e ad de 14 3d 78 cb d3 be 67 45 98 3e
       0.16706462 0.036345173 -0.41366172 0.2974045
000020 aa d4 37 bd e5 7b 7c be 3f 6f d2 3d 9c bb 1e 3e
       -0.044880547 -0.24656637 0.10275125 0.15501255
000030 9a cc 89 3e e9 7f 8a be 23 b6 b2 be dc 52 7f bc
       0.2691391 -0.27050713 -0.34904584 -0.01558372
000040 11 96 ba 3e e1 95 d5 3d 2e bc 38 3e 2f c5 29 be
       0.36442617 0.10428978 0.18040535 -0.16579126
000050 d4 6e dd 3e e4 c5 e5 be be 1a 3a be fc 06 59 3f
       0.43248618 -0.4487754 -0.18174264 0.8477628
000060 9b 05 05 3f 8b e3 0e be 4e f5 e1 be 28 fa 1a bf
       0.5196168 -0.13953988 -0.44132465 -0.6053796
000070 bf 50 6e bc f1 b7 02 3e a3 2b 0b bf f2 72 6c bd
       -0.014545619 0.1276548 -0.5436346 -0.057726808
000080 92 55 37 bd cb 7a 0c be 2c 80 c6 3e 08 60 14 bd
       -0.04475934 -0.13718717 0.38769662 -0.036224395
000090 01 68 a1 be bb 40 cf bd f4 a0 c1 be 44 99 03 be
       -0.3152466 -0.10119768 -0.3781811 -0.12851435
0000a0 a7 05 0d be 50 e0 a6 be 97 d4 ea 3d 1e 18 d1 3d
       -0.13771687 -0.32593012 0.114663295 0.10209678
0000b0 8b 94 24 3e 2e 7f 8a 3e 40 32 fa 3d 6c 67 68 3e
       0.1607229 0.27050155 0.12216616 0.22695702
0000c0 22 2c 81 be d3 c0 05 3d 9b 58 cc 3d 8b c2 84 be
       -0.25228983 0.032654595 0.09977838 -0.25929675
0000d0 56 d1 0d 3e a8 a7 79 3d df eb 25 be 68 a3 73 3e
       0.13849387 0.060950905 -0.16203259 0.23792803
0000e0 d1 98 29 be 69 89 ef 3c ce 08 ce 3d d5 cf a1 be
       -0.16562201 0.029240327 0.10060273 -0.31603876
0000f0 ce dc bb 3d b3 8e 27 be 7c a5 99 3d 20 3c 37 3e
       0.091729745 -0.16363029 0.07502267 0.1789403
000100 a5 ba 82 3e 14 f1 8c be 60 9a 7f 3c 12 de de 3d
       0.25533023 -0.27527678 0.015600771 0.108822
000110 cb 10 3d bd 70 be f3 3d af 71 c8 bd f2 c5 5b 3e
       -0.046158593 0.119015574 -0.097873084 0.21462229
000120 96 b0 72 3e 69 b5 21 3f 9d 99 37 be a1 a6 05 be
       0.23700175 0.63167435 -0.17929693 -0.13051845
000130 96 00 96 bc d9 75 d8 bd 2a 9e 8c bd df 5a c5 3c
       -0.018310826 -0.10569353 -0.06866105 0.024091182
000140 22 15 6f bd e3 70 6c 3e 05 92 f8 bd 1d 0b 4a be
       -0.058369763 0.23089938 -0.12137226 -0.19730802
000150 d4 58 d9 be 57 90 41 bf 11 5e b8 be c2 61 b5 bd
       -0.42450583 -0.7561087 -0.36009267 -0.088565364
000160 cb 49 86 3b 9f 09 25 be 9e 81 c9 bd bb 62 2a 3f
       0.0040981523 -0.16116951 -0.09839176 0.665569
000170 37 80 5a be 02 5a 86 3e 20 10 c3 3e 31 89 05 bf
       -0.21337973 0.26240546 0.3809824 -0.5216246
000180 3f 44 ee be ff fe fc be 8a 2c 09 be 6e 76 e1 be
       -0.46536443 -0.49413297 -0.13395897 -0.44035667
000190 59 3a 52 be 00 96 02 3f 29 c7 38 3e ba 76 ed 3b
       -0.2053007 0.5101013 0.18044724 0.0072468193
0001a0 3b 2b 69 3c a0 52 0e 3d f8 30 c4 be 17 90 a4 3e
       0.014231498 0.034746766 -0.3831861 0.32141182
0001b0 35 b3 c2 3e de e8 a7 be 2f b6 11 be 20 69 88 3e
       0.3802735 -0.3279485 -0.14229654 0.26642704
0001c0 89 f9 84 be a9 ce 3d 3d 25 d5 a1 be 71 3c ea 3e
       -0.2597163 0.046339665 -0.3160793 0.45749238
0001d0 89 09 b1 3e 21 00 a8 be 91 15 33 be 71 ff 3d 3e
       0.34577587 -0.32812598 -0.17488696 0.18554474
0001e0 0b e0 a0 3e ac ac 38 be 60 8f 81 be 99 d5 87 3d
       0.3142093 -0.18034619 -0.253047 0.066325374
0001f0 ea bf 24 be 31 f0 3f be 72 58 8f bd 48 58 89 bd
       -0.16088834 -0.1874397 -0.069992915 -0.067062914
000200 2a 09 0b 3e 92 c2 2a 3e 2c e1 a2 3e 4a 7b f4 be
       0.13577715 0.16675785 0.31812418 -0.47750312
000210 f5 e8 4a bd ae 2c 41 3e 07 72 e5 3d 7f 10 08 3e
       -0.04953857 0.188647 0.112033896 0.13287543
000220 93 f8 84 3e fe 04 a4 bd e0 a5 c1 bd f4 b3 cc 3d
       0.25970897 -0.08008765 -0.09455466 0.09995261
000230 8e 3a da 3e be 84 45 bd 4a 83 c5 bc 03 ab b0 be
       0.426228 -0.048222296 -0.024110455 -0.34505472
000240 5a 11 85 be aa 53 b1 bd 9c c2 24 3e 38 36 b4 3e
       -0.259898 -0.08658536 0.16089863 0.35197616
000250 26 1a 84 3e f9 2a e3 be 2f 7f e4 be d8 cc 58 3e
       0.258012 -0.44368723 -0.44628283 0.21171892
000260 36 7a b9 3d c8 d9 0f 3d 0e 44 b4 3d d5 01 ae be
       0.09056513 0.0351198 0.08802043 -0.33985773
000270 64 51 59 3e ce 87 6d 3e 0f 37 ee be d1 24 e1 be
       0.21222454 0.23196337 -0.4652638 -0.439734
000280 5b 91 dc bd 5e d3 25 be 37 e0 74 bd 89 48 d1 3e
       -0.10769912 -0.16193911 -0.05978414 0.40875652
000290 8a d7 ad 3e 25 9e ab be 66 09 6b 3e ee 8a 17 3e
       0.33953506 -0.33519092 0.22952804 0.14799091
0002a0 00 79 2f 3d ef 22 28 3e 7e 0a 32 bd 86 3e 26 bd
       0.042840004 0.16419576 -0.043467037 -0.04058697
0002b0 04 85 4a be 2c c6 8a 3d f5 7e a2 3e 49 dc 90 be
       -0.19777304 0.067760795 0.31737486 -0.28293064
0002c0 ae a3 99 3e d9 c7 36 be c8 85 9a be 03 4e e5 3e
       0.3000769 -0.17849673 -0.30180192 0.4478608
0002d0 74 f3 68 3e 3b ce 56 3e 49 c6 9f 3e 61 fe ec 3d
       0.2274912 0.20977108 0.31205967 0.115719564
0002e0 92 17 10 bf 64 da d6 be 87 30 82 3e 8c fc 1a 3d
       -0.56285965 -0.41963494 0.25427648 0.037838504
0002f0 9a 93 34 3d 77 5d 73 bc 76 b2 f1 3d 85 93 9d 3e
       0.044086076 -0.014853827 0.11801617 0.3077661
000300 09 04 ce bd 11 2c c0 be 48 ea 81 be c8 c6 bf bd
       -0.100593634 -0.3753362 -0.25374055 -0.093640864
000310 a3 de 4e be 82 10 c2 3e 95 a1 4d 3e ed 62 68 3e
       -0.20202117 0.3790322 0.2008117 0.22693987
000320 9c 53 99 3e c7 fa 17 be 85 4f ad 3e d5 8a 30 bd
       0.299466 -0.14841758 0.3384973 -0.04310115
000330 49 ae 61 3e e0 1a 45 3b de 3c b2 be 3f e9 8a 3e
       0.22039141 0.0030075833 -0.34812063 0.27131078
000340 fc b7 70 be a2 30 bd bc c8 ae a6 3d 25 07 1b 3f
       -0.23507684 -0.023094479 0.08138806 0.60557777
000350 9e 1f d3 bd 92 26 d3 be 03 13 2e be a8 46 8e 3e
       -0.10308765 -0.41240364 -0.1699944 0.2778828
000360 b6 69 37 be 7b a8 48 3d c2 50 e5 3d 9b 43 ad 3d
       -0.1791142 0.0489888 0.11197044 0.0846016
000370 b3 fa 7c 3e 4a 2e 10 3e 97 7c 6e be d8 34 5e be
       0.24705009 0.14080158 -0.23289715 -0.21699846
000380 98 59 17 3f e5 69 ba bc 94 24 b6 be 70 27 bc 3d
       0.59121084 -0.022755573 -0.35574782 0.091872096
000390 97 37 87 be 75 5c 7b 3d b9 89 86 bd e9 24 34 bd
       -0.264096 0.06136747 -0.06569237 -0.043980513
0003a0 3b 30 55 3a 93 8b ff bd 5f f1 94 3e 7d f9 ce 3e
       0.0008132492 -0.124777935 0.29090402 0.4042472
0003b0 0a f4 1d bd 8c d7 98 3d 1b f7 ea be a8 dc f2 bb
       -0.038562812 0.07462987 -0.45891652 -0.007411558
0003c0 fa 76 35 be 33 c6 9e be 14 e5 54 bd c1 e5 92 3e
       -0.17721167 -0.3101059 -0.05197628 0.28690913
0003d0 51 b4 1e bd ee 80 6a 3e 10 d5 9a 3e a9 06 fa 3c
       -0.038746182 0.22900745 0.3024068 0.030520754
0003e0 6d b3 84 3c aa 7e c6 be ea 33 5c be af 09 0d 3f
       0.016198838 -0.38768512 -0.21504179 0.550929
0003f0 31 54 e1 3d 25 55 d4 3e 1f 85 fc be 95 c0 ed bd
       0.11002386 0.4147121 -0.49320313 -0.11608998

cnn0.conv3.bias f4 [128]
000000 84 63 36 be ce 87 9e be 4b 60 3f 3d 21 71 31 be
       -0.178114 -0.30962986 0.04672269 -0.17328312
000010 41 dc 09 be 99 8f c1 be e3 1e 8d be fe 10 02 3f
       -0.13462926 -0.3780487 -0.27562627 0.5080718
000020 2a ef 74 3e a2 c7 5f 3c 6d 3b 31 3e 6e 47 8c be
       0.23919359 0.013658436 0.17307825 -0.27398247
000030 63 84 83 be f6 de b9 bd bf 2a f9 3e 0d a7 2f bd
       -0.2568694 -0.090757295 0.48665425 -0.04288392
000040 25 b3 e6 3e a0 f0 c9 be d8 5b 07 3e 57 c1 82 3e
       0.4505855 -0.39441395 0.1321863 0.25538132
000050 db eb f2 bd 26 47 60 be 09 5e ea bd 60 cf bf 3e
       -0.11861392 -0.21902141 -0.11443717 0.37462902
000060 36 eb 17 3d b2 27 0f 3e 51 40 a4 be 8c 3f c5 bd
       0.03708955 0.13979986 -0.3208032 -0.09631261
000070 7b 1c 46 bd 57 7b db 3d cd f2 9c 3d 4b 0d ee bc
       -0.048367005 0.107168846 0.07663498 -0.029059073
000080 c1 bd 09 bd fe 36 eb 3c 37 63 70 be c6 a8 46 3d
       -0.03362823 0.028712746 -0.23475347 0.0485008
000090 da 33 87 3d 6d b6 d8 be 93 53 69 3e 0e 07 cd bd
       0.06601687 -0.4232668 0.22785787 -0.10011111
0000a0 07 56 02 3e 65 5a 39 3d d1 e4 22 be 97 e7 cc be
       0.1272813 0.045252223 -0.15907599 -0.4002044
0000b0 e4 65 ac bd 85 da 47 3e 53 ac 9f be 52 50 e3 3d
       -0.084178716 0.19516952 -0.3118616 0.11099304
0000c0 3f 73 9e be 8e 51 6a bd 5b 90 6d bd 9e 9e d5 bd
       -0.309473 -0.057206683 -0.057998996 -0.104306445
0000d0 99 ac 2f bc 64 98 a4 3e c3 df 7d bd 6e d9 b9 bc
       -0.010722303 0.32147515 -0.061980974 -0.022686686
0000e0 36 de 95 3c a7 86 ad be 3f 20 40 3c 99 4d 09 be
       0.018294435 -0.33891794 0.011726438 -0.13408507
0000f0 98 80 9f 3e 2e 3b 25 3e e9 fa 81 be c7 c3 e9 bc
       0.31152797 0.16135857 -0.25386742 -0.028535737
000100 12 9b d6 be b6 f8 a1 be be 2e 35 3e 04 64 3e 3d
       -0.41915184 -0.31635064 0.17693612 0.0464821
000110 b0 a0 2a bd 7f b9 a2 be a3 cd 73 3e 06 cc 57 3d
       -0.04165715 -0.31782147 0.23808913 0.052684806
000120 0c 65 39 bd c3 af 7a 3e d2 22 98 be 69 2f 2e 3e
       -0.04526238 0.2448111 -0.29714066 0.17010273
000130 e6 7d 53 be 16 c6 8e 3d bc e6 d9 3e 17 62 68 3d
       -0.20653495 0.06971376 0.4255885 0.05673417
000140 ce 2b 2f be 6b c8 a1 bd 5d 03 d3 be 5c 55 a0 3e
       -0.17106554 -0.07899555 -0.41213503 0.31315124
000150 c8 3e 05 be fc d8 06 be 74 f8 53 be 5e bc 2f be
       -0.1301223 -0.1316871 -0.20700246 -0.171617
000160 8c 62 91 3c 23 b8 55 be a5 9b b1 be f3 e1 0b 3e
       0.017747186 -0.20871024 -0.3468906 0.13660412
000170 c8 e9 0e 3f aa b2 ce bc cd 6a b5 be 9c 0a 09 bd
       0.5582547 -0.025231678 -0.35433045 -0.033457384
000180 43 bf 2e 3e 58 c5 01 be 04 27 33 3e aa 26 b9 3e
       0.17065148 -0.12672937 0.17495352 0.3616231
000190 9c 4e 21 3d 9b 1a 92 3e ae 1c 93 3e ed 67 ef 3d
       0.03938161 0.28535923 0.28732818 0.11689744
0001a0 2f 72 03 3e 7f c1 d0 bd 03 bd aa 3d 21 49 96 3e
       0.12836526 -0.101931565 0.083368324 0.29352668
0001b0 cf c0 38 be ee 97 09 3e ae 1f 59 3d 50 60 c9 3e
       -0.180423 0.13436863 0.053008728 0.39331293
0001c0 c5 57 e4 3e b5 54 e8 be ea fa 31 bd 55 ce 45 be
       0.44598213 -0.45377126 -0.04345218 -0.1931699
0001d0 ce 08 c7 3e ff 88 c6 3b 57 c6 fd 3d 90 e4 67 bd
       0.38873905 0.0060588117 0.12391346 -0.05661446
0001e0 75 7e 5b 3e 23 12 67 bd 04 83 29 3e ad 29 ff bd
       0.21434958 -0.05641378 0.16553885 -0.12459121
0001f0 30 02 9d 3e 2f 64 8b 3d 51 55 46 3d ea be 22 3e
       0.3066573 0.06806218 0.048421208 0.1589314

cnn0.batchnorm1.weight f4 [128]
000000 14 28 4d 3f 45 32 7d 3f bd a9 76 3f 42 30 66 3f
       0.8013928 0.9890483 0.9635275 0.89917386
000010 91 b1 76 3f 7d f8 5b 3f b1 9d 58 3f 9b bd 7e 3f
       0.96364695 0.8592604 0.8461562 0.99508065
000020 7f 0c 0c 3f b3 e8 75 3f f6 56 4d 3f d9 2b 7f 3f
       0.5470657 0.96058196 0.80210817 0.9967628
000030 d4 ca 57 3f fe 27 6f 3f 00 6b 46 3e f9 51 70 3f
       0.84293866 0.934204 0.19376755 0.9387508
000040 98 03 4d 3f 5c 31 87 3f 52 7b 4e 3f 74 30 53 3f
       0.8008361 1.0561938 0.8065692 0.8249581
000050 94 3f 55 3f f5 ba 64 3f 9e c9 3c 3f ed d9 47 3f
       0.8330014 0.89347774 0.73745143 0.78066903
000060 86 ed 36 3f 76 a1 5c 3f dd ff 62 3f bd 56 90 3f
       0.7145618 0.8618387 0.88671666 1.127647
000070 98 07 3d 3f 04 6a 51 3f 30 02 56 3f cb e3 64 3f
       0.7383971 0.8180239 0.8359709 0.89410084
000080 f2 0b 6f 3f b1 b1 65 3f 6d 1a 61 3f af 18 4b 3f
       0.933776 0.8972426 0.8793095 0.7933454
000090 78 f9 6e 3f 75 08 74 3f 05 1a 6c 3f 2c a1 50 3f
       0.9334941 0.95325404 0.922272 0.8149593
0000a0 53 48 6d 3f e3 9f 57 3f 9e c3 73 3f 4f 82 62 3f
       0.92688483 0.8422834 0.95220363 0.88480085
0000b0 f5 d4 2c 3f 4c 7e 75 3f 4e 3a 6c 3f 69 8b 4e 3f
       0.67512447 0.9589584 0.92276466 0.80681473
0000c0 9a fd 49 3f b0 d2 3e 3f b0 bb 79 3f 76 83 42 3f
       0.7890259 0.74540234 0.97552013 0.75981843
0000d0 7f c7 6f 3f ff 94 4b 3f f6 f6 54 3f 0e 4b 74 3f
       0.9366378 0.79524225 0.8318933 0.95427024
0000e0 3d 64 2e 3f ec 66 78 3f 50 cf 60 3f 0f cb 7d 3f
       0.681217 0.97032046 0.87816334 0.9913797
0000f0 66 c6 59 3f c7 f6 55 3f 36 84 09 3f 42 8f 74 3f
       0.85068357 0.8357968 0.5371736 0.95531094
000100 cb ae 51 3f 1d 88 44 3f 42 8f 4f 3f 19 54 4e 3f
       0.8190734 0.7677019 0.8107797 0.8059707
000110 24 3c 70 3f f4 6a 6e 3f f1 c2 30 3f 07 f9 5d 3f
       0.9384177 0.9313195 0.69047457 0.8670811
000120 96 d3 77 3f 1e 91 74 3f 0a d3 7a 3f d1 b7 61 3f
       0.9680723 0.9553393 0.9797827 0.88171107
000130 5b 61 4e 3f 4f 2f 38 3f 2d 72 57 3f 40 76 40 3f
       0.806173 0.7194719 0.84158593 0.75180435
000140 aa 0d 40 3f e1 b3 4c 3f f7 26 21 3f c6 59 69 3f
       0.7502085 0.79961973 0.6295008 0.9115261
000150 2f bc 79 3f 52 0e 2d 3f 5c 66 28 3f bb 6b 93 3f
       0.9755277 0.67599976 0.6578119 1.1517252
000160 00 05 82 3f e1 03 84 3f cc 5f 74 3f 83 d4 6e 3f
       1.0157776 1.0313684 0.95458674 0.9329302
000170 93 e6 49 3f ef ba 70 3f ac 82 40 3f ff 01 46 3f
       0.78867453 0.9403524 0.7519939 0.77346796
000180 5f 2b 38 3f 44 70 67 3f 8e 62 47 3f 40 6e 71 3f
       0.7194118 0.9040568 0.7788476 0.94308853
000190 2d 95 62 3f 06 05 27 3f 82 5b 72 3f 4d b1 70 3f
       0.88508874 0.6524204 0.9467088 0.9402054
0001a0 71 7f 48 3f 26 ef 4e 3f 87 d8 60 3f 14 0e 43 3f
       0.7831946 0.8083366 0.87830395 0.76193357
0001b0 13 18 74 3f 85 16 53 3f e5 fa 74 3f 77 a0 70 3f
       0.95349234 0.8245624 0.95695335 0.9399485
0001c0 eb 1e 7a 3f fe 8d 67 3f cb 13 4c 3f 44 85 52 3f
       0.9770343 0.9045104 0.797177 0.822346
0001d0 fe fa 6a 3f 36 10 41 3f 96 db 50 3f 25 9e 49 3f
       0.91789234 0.7541536 0.8158506 0.78756934
0001e0 a3 c9 62 3f 79 c8 72 3f d0 d4 6d 3f 32 0e 44 3f
       0.88588923 0.94837147 0.9290285 0.7658416
0001f0 a3 00 34 3f 88 be 75 3f 22 23 70 3f 0a 19 71 3f
       0.7031347 0.9599385 0.9380361 0.9417883

cnn0.batchnorm1.bias f4 [128]
000000 36 ef 25 be 2b 97 94 be 25 10 7c be b8 e4 8d be
       -0.16204533 -0.29021582 -0.24615534 -0.2771356
000010 7d 31 6f be 36 78 9b be 88 04 98 be 0d 2f a4 be
       -0.23358722 -0.3036515 -0.29690957 -0.32067147
000020 33 83 c4 be 2a e1 98 be 1e 14 40 be 6e 16 af be
       -0.38381347 -0.29859287 -0.18757674 -0.341968
000030 d3 f9 00 be d9 3a a6 be bf 68 3c bf a1 46 9f be
       -0.125953 -0.32466772 -0.7359733 -0.31108573
000040 11 ae a8 bd ab 72 10 be 92 d1 f2 bd 94 3f 07 be
       -0.082363255 -0.14106242 -0.118563786 -0.13207847
000050 f2 b9 20 be 4f 7d 91 be 4a 9e 3d be ed 5a d1 bd
       -0.15695933 -0.28415915 -0.18517414 -0.10222421
000060 a6 7d 7d be 5b 56 e4 bd 01 36 9b be 8a 28 b7 bd
       -0.24754962 -0.111492835 -0.3031464 -0.08943279
000070 6d eb 70 be 83 d1 1a be 1e 93 cf bd bb f4 e8 bd
       -0.23527308 -0.15118985 -0.10135482 -0.11374804
000080 d6 3d 82 be b3 0c 9f be ff b9 a3 bd a2 c6 29 be
       -0.25437802 -0.31064376 -0.0799446 -0.16579679
000090 bb eb 81 be 95 fa b6 be 03 fc 8f be b5 d1 de bd
       -0.2537516 -0.35738054 -0.28121957 -0.10879842
0000a0 7e 0f 99 be de 6d a0 bd d5 77 81 be fe cb 83 bd
       -0.29894632 -0.078334555 -0.25286737 -0.06435393
0000b0 7e 50 ab be 55 0d 7c be 09 b6 8b be 0e 4a e4 bd
       -0.33459848 -0.24614461 -0.2728732 -0.11146937
0000c0 e1 4b 4d be 2f ed 4b be 75 a2 a5 be 17 19 05 be
       -0.20048477 -0.19914697 -0.32350507 -0.12997852
0000d0 bf d0 8b be fc bd 41 be 4a 36 c6 bd 58 5a 89 be
       -0.27307698 -0.1892013 -0.096783236 -0.2682674
0000e0 3b b1 a3 be 98 93 74 be 7c 7f 9c bd 1e c6 8d be
       -0.31971154 -0.23884428 -0.07641503 -0.27690214
0000f0 86 6c b9 bd 07 48 a7 be a5 70 e2 be ce b1 86 be
       -0.09053902 -0.3267214 -0.44226566 -0.2630753
000100 f7 ca 1f be b3 ca 33 be 3c 9e 1f be 6a 1f 18 be
       -0.15604769 -0.17557792 -0.15587705 -0.14855734
000110 8c 96 9e be 1a 3d a0 be f1 7e 88 be c1 00 99 be
       -0.30974233 -0.31296617 -0.2665935 -0.29883388
000120 be 4e 86 be 86 ec 96 be 1c eb 94 be 9f be 90 be
       -0.2623195 -0.29477328 -0.29085624 -0.28270432
000130 8a f6 f3 bd b7 73 56 be 33 54 cc bd 5c 46 4b be
       -0.11912258 -0.20942579 -0.09976997 -0.19851059
000140 72 6b 24 be 6f d3 1b be 31 35 b4 be f4 bf a0 be
       -0.16056612 -0.15217374 -0.35196832 -0.3139645
000150 18 6e ac be 38 4b 7e be fe ff 9e be 6d e2 b0 bd
       -0.33677745 -0.24833381 -0.31054682 -0.08636937
000160 89 4e 81 be 11 b5 2e be 5e 2f 9f be f9 04 a1 be
       -0.2525523 -0.17061259 -0.31090826 -0.31449106
000170 58 63 5f be 1b 3d db be 8e f8 1e be df bc 18 be
       -0.2181524 -0.42820057 -0.15524504 -0.14915799
000180 ba 5d 54 be 62 68 bf be 9f 7d 46 be d1 f5 85 be
       -0.20738879 -0.37384325 -0.19383858 -0.26164106
000190 25 f0 ba be df 87 97 be 08 bd 97 be 17 a6 9a be
       -0.3651134 -0.2959585 -0.29636407 -0.30204841
0001a0 b3 15 fd bd 6c dd fa bd 95 80 a9 bd 34 ba 22 be
       -0.123576544 -0.12249264 -0.08276478 -0.15891343
0001b0 d3 e9 8f be ee 21 11 be 1a 0f 97 be 43 91 90 be
       -0.2810808 -0.141731 -0.2950371 -0.28235826
0001c0 62 08 a2 be fa 27 a5 bd f2 73 40 be 65 cd dd bd
       -0.3164702 -0.080642655 -0.1879423 -0.108301915
0001d0 91 8e 8e be 34 59 19 be 0f 0e c0 bd f6 27 2c be
       -0.27843145 -0.14975435 -0.093776815 -0.16812119
0001e0 e0 76 80 bd 5b ea a5 be 95 57 99 be 45 b8 0b be
       -0.062726736 -0.32405362 -0.29949632 -0.13644512
0001f0 5d af 60 be 41 44 80 be 5f 09 bc be 48 40 8d be
       -0.21941896 -0.25052074 -0.367259 -0.27588105

cnn0.batchnorm1.running_mean f4 [128]
000000 bf 06 8f 3c 2c 9e bf bd 8e d2 87 bd d1 02 a1 be
       0.017459271 -0.09356341 -0.06631957 -0.3144746
000010 bb ba 5f 3e 66 87 4d bd 9f aa 0f 3e 27 49 61 be
       0.21848576 -0.050177954 0.1402993 -0.22000562
000020 65 0c 80 bd f3 6a c9 3d 73 e8 17 3e da 66 10 be
       -0.06252364 0.09834852 0.14834766 -0.14101735
000030 d6 86 2f 3e ed 3a 45 3e fb 1b 98 3e bf 4b 69 be
       0.1714128 0.1926076 0.29708847 -0.22782801
000040 71 7a 9a 3d 5f ea 12 bf 09 d9 14 3d 08 88 c8 3e
       0.07542885 -0.5738887 0.036339793 0.39166284
000050 16 e6 40 bd 41 bd d0 bc a1 e0 02 be 4a a3 c0 3e
       -0.047094427 -0.025480868 -0.12781002 0.3762458
000060 53 a6 cc bc 93 c0 98 3d a5 eb c7 be ab ce bd be
       -0.024981653 0.074586056 -0.3904697 -0.37071738
000070 3c 35 9e bc c2 c9 49 bd d1 a0 89 3e c7 c8 88 be
       -0.019312494 -0.049264677 0.26880506 -0.2671568
000080 cd e8 26 bf 99 c1 be 3d a0 e3 2b bc 80 fc 94 bd
       -0.65198976 0.093142696 -0.010491282 -0.07274723
000090 4a 3f cb bd 54 58 87 bd a5 d2 9e 3d 76 b3 bf 3e
       -0.09924181 -0.06608644 0.07755021 0.37441605
0000a0 f3 1d f3 be 01 0e 79 3e 14 d6 04 bf 4b 3c a7 be
       -0.47483787 0.24321748 -0.5188916 -0.32663187
0000b0 7a 07 17 be 4e ce e9 be 7a d3 cd bd 6b 7c c4 3d
       -0.14748946 -0.4566521 -0.100501016 0.09594043
0000c0 a5 97 49 bd 7e 6d e7 3e 8c 0e 8d be 4e c3 0b be
       -0.049216885 0.45200723 -0.2755016 -0.13648722
0000d0 4c fa ae bd ed 4d fc bc 90 0b 79 bd e3 20 77 3e
       -0.08543834 -0.030798877 -0.060802042 0.24133639
0000e0 63 1e f6 bd 1f 5d 6f 3e bf d2 c6 3d 18 02 52 be
       -0.120175146 0.23375367 0.097081654 -0.20508611
0000f0 49 f6 00 3d 15 41 3c 3d e7 62 aa bc 56 3d bf be
       0.031484876 0.045960505 -0.020799113 -0.37351483
000100 24 77 11 be c9 7a 09 bd c7 69 8b be e1 93 b7 3e
       -0.14205605 -0.033564363 -0.2722914 0.3585501
000110 e2 32 d3 be 45 f7 d2 be 32 3a 0e bd 80 8b 4d bd
       -0.41249758 -0.41204277 -0.034723468 -0.050181866
000120 ce 4c f0 bd db a3 c5 bd 74 2c b9 bc 4c 37 a3 be
       -0.11733399 -0.096503936 -0.022604205 -0.31878126
000130 c5 27 a1 3e 05 f5 50 3e cb 1e e5 3d 72 42 00 3e
       0.31475654 0.20405968 0.11187514 0.12525347
000140 c7 64 6f bd 9d a1 09 be 6b 5c 79 3e 2f f5 d1 be
       -0.05844572 -0.13440557 0.24351661 -0.41007373
000150 ff 88 b7 be c8 87 8d 3e e2 f5 8d be 06 73 c5 bd
       -0.35846707 0.27642655 -0.27726656 -0.096410796
000160 39 9a 2f be a9 34 82 be c4 83 de bd f8 18 5f bc
       -0.17148675 -0.25430802 -0.10864976 -0.013616793
000170 57 56 9e 3e 7e 97 71 be 0f c5 6f bc d9 0e 6a be
       0.30925247 -0.23592946 -0.014634385 -0.22857226
000180 e8 0c 02 be 7f 63 90 be 75 74 b6 3e 0d bf f1 be
       -0.12700236 -0.2820091 0.35635725 -0.47216073
000190 75 f9 af bd 8d 5f 2d bd ad c0 9d be 12 e2 6f 3c
       -0.08592502 -0.042327452 -0.30811062 0.014641302
0001a0 9a 6b 2d bb 28 98 72 bd 18 b1 1c be cc 6f 1f be
       -0.002646184 -0.05922714 -0.15301931 -0.15569991
0001b0 6d 2a 5b 3e 11 a2 35 3e 9f eb 28 bf a4 c3 c1 be
       0.21402903 0.17737605 -0.6598453 -0.37844574
0001c0 6f 5c 79 be b3 80 28 3e ac 96 c9 3d db db a6 bd
       -0.24351667 0.16455345 0.098431915 -0.08147403
0001d0 41 dc df be a9 31 07 bd ec 53 ef be fe 42 3c be
       -0.43722728 -0.033006344 -0.46743715 -0.1838493
0001e0 2e 65 7d 3e a0 57 92 bd 8c 76 8f be 13 2a 2c 3e
       0.24745628 -0.071456194 -0.28020132 0.16812925
0001f0 c5 f0 03 be 22 77 b1 be 33 e0 e9 be 33 39 3c be
       -0.12884815 -0.34661204 -0.45678863 -0.18381195

cnn0.batchnorm1.running_var f4 [128]
000000 12 0b 8f 3d 9b 0c dd 3d 6e 0b b6 3d 4e a8 36 3e
       0.06984533 0.1079342 0.08888899 0.1783764
000010 4a 16 23 3d c0 80 0d 3e 97 57 ab 3d 4f 48 f3 3d
       0.03981618 0.13818645 0.08366316 0.11879026
000020 aa ec d6 3d bd ee a6 3d 9c 96 94 3d 71 89 0d 3e
       0.10494359 0.081510045 0.07255289 0.13821961
000030 d6 55 9a 3d 8e 30 b5 3d a6 37 6a 3e 68 47 a2 3d
       0.07535903 0.08847152 0.2287279 0.07923776
000040 f3 e9 83 3d d5 57 64 3e 87 47 9b 3d 33 f8 93 3d
       0.06441107 0.2229913 0.07582002 0.072250746
000050 9a 3c 92 3d c5 b9 1d 3e 35 e2 8d 3d d1 4b 95 3d
       0.07140465 0.15402897 0.06927911 0.072898515
000060 91 5b a1 3d c9 7c 8c 3d fc a3 24 3e 8e 60 72 3e
       0.07878793 0.068597384 0.1607818 0.23669645
000070 a5 ee 6f 3d e1 54 81 3d 0f 03 8e 3d c4 a5 8a 3d
       0.0585772 0.063150175 0.06934177 0.067698985
000080 15 b3 0d 3e 83 b1 c7 3d a4 9f 84 3d c2 8c 84 3d
       0.13837846 0.097506545 0.064757615 0.0647216
000090 f6 81 bb 3d 60 35 32 3e fe ff 9e 3d 9f 4b 91 3d
       0.091556475 0.17403173 0.077636704 0.07094502
0000a0 6c 9e 0b 3e d8 dc 90 3d 09 7f ee 3d 56 0d 79 3d
       0.13634652 0.070733726 0.11645324 0.060803734
0000b0 86 d4 9d 3d 21 60 ec 3d c3 0e ba 3d 1d 60 87 3d
       0.07706551 0.11541773 0.09084847 0.06610129
0000c0 14 11 94 3d 8e 1a 8e 3d b4 a4 ff 3d d0 4a 9d 3d
       0.0722982 0.06938659 0.124825865 0.07680285
0000d0 0e 87 19 3e e4 df 86 3d 96 75 83 3d de fe 09 3d
       0.14992926 0.065856725 0.06418912 0.033690326
0000e0 3e d6 96 3d 07 84 b0 3d b6 ef 8a 3d 9e b5 cf 3d
       0.07365082 0.08618932 0.067840025 0.101420626
0000f0 cf fc 80 3d 3b 3b ab 3d 07 92 c6 3d 30 0c 0d 3e
       0.062982194 0.08360907 0.09695821 0.1377418
000100 2e ab 87 3d 1b a7 86 3d 8d f2 95 3d 35 61 8d 3d
       0.06624447 0.065748416 0.073216535 0.069033064
000110 ff b3 db 3d 16 c3 a8 3d b8 b0 a0 3d 73 53 c2 3d
       0.10727691 0.08240335 0.078462064 0.09488573
000120 f6 57 f5 3d 2c e5 be 3d 76 43 e4 3d 46 5e 87 3d
       0.11979668 0.09321055 0.1114568 0.06609778
000130 4f c3 8f 3d bc 24 a8 3d 79 c0 8a 3d 13 96 92 3d
       0.07019674 0.082101315 0.067749925 0.07157531
000140 33 e5 9c 3d 50 11 8d 3d 46 5c c3 3d 75 2a 2e 3e
       0.07660904 0.06888068 0.09539084 0.17008384
000150 26 85 0a 3e 58 ea ba 3d 3a c4 b2 3d f7 23 61 3e
       0.13527355 0.09126729 0.087288335 0.21986376
000160 e5 94 4d 3d 67 42 5d 3e e3 95 77 3d 69 d0 07 3e
       0.050190825 0.21607362 0.060445677 0.13263096
000170 31 72 8c 3d 24 f8 15 3e 25 14 94 3d 37 24 94 3d
       0.06857718 0.1464544 0.07230405 0.0723347
000180 30 17 94 3d 28 7b 5e 3e b4 4e 9b 3d 76 84 cb 3d
       0.07230985 0.21726668 0.07583371 0.09937374
000190 a4 75 24 3e d5 2c ac 3d 6e bf 52 3d dc 0c 02 3e
       0.16060501 0.084069885 0.051452093 0.12700218
0001a0 5f 9f 8b 3d ac 06 86 3d f7 c5 7e 3d 76 6c 90 3d
       0.06817507 0.06544241 0.062200513 0.07051937
0001b0 27 50 d7 3d 98 a1 8a 3d 04 d2 e1 3d 7d 86 67 3d
       0.10513335 0.06769103 0.110263854 0.056524742
0001c0 a9 6e 0b 3e e2 f6 89 3d a2 d4 88 3d a7 8e 89 3d
       0.13616432 0.06736542 0.066811815 0.06716662
0001d0 2c 39 06 3e 12 47 9f 3d e6 3b 8d 3d 54 5d 92 3d
       0.13107747 0.077772275 0.0689619 0.07146707
0001e0 02 2e 83 3d ec ac a2 3d f0 a1 07 3e 73 5d 94 3d
       0.0640526 0.079431385 0.13245368 0.072443865
0001f0 f9 3d a4 3d 5f 0d cb 3d cd af 09 3e b5 e9 d7 3d
       0.08019633 0.0991466 0.13445969 0.10542623

cnn0.batchnorm2.weight f4 [128]
000000 4c d2 74 3f f7 91 88 3f 3a c6 75 3f 29 ad 7e 3f
       0.9563339 1.0669545 0.96005595 0.9948297
000010 dc 56 7b 3f c9 cb 80 3f 06 23 84 3f c9 ba 79 3f
       0.9817941 1.006219 1.0323188 0.97550637
000020 bd de a5 3f cf e6 7b 3f ca 5f 7c 3f 01 ec 82 3f
       1.2958599 0.9839906 0.9858366 1.0228273
000030 a6 cc 7c 3f 76 c8 8d 3f 06 79 87 3f 20 d1 78 3f
       0.9874977 1.1076801 1.0583808 0.971941
000040 ae a8 80 3f 35 5f 6c 3f 45 05 72 3f 07 e4 6c 3f
       1.0051477 0.92332774 0.9453929 0.9253544
000050 20 8d 81 3f 39 3a 7b 3f eb b8 79 3f 08 13 7e 3f
       1.0121193 0.98135716 0.9754779 0.9924779
000060 9a 9b 7f 3f 02 0d 7e 3f f9 35 7d 3f 61 72 78 3f
       0.99846804 0.992386 0.9891048 0.9704953
000070 97 bb 8a 3f 5a 25 81 3f d4 14 80 3f f6 d6 8c 3f
       1.0838498 1.0089524 1.0006356 1.1003101
000080 2a e8 83 3f 35 41 6f 3f b8 3b 78 3f 1d c9 b3 3f
       1.0305226 0.93458873 0.96966124 1.404575
000090 d8 c4 86 3f ca 42 80 3f 7c c2 82 3f 69 44 82 3f
       1.0528822 1.0020382 1.0215602 1.0177127
0000a0 be f5 86 3f f1 fb 73 3f 80 38 7a 3f 73 bf 82 3f
       1.0543745 0.9530631 0.9774246 1.0214676
0000b0 1e e9 7a 3f 18 60 77 3f 48 88 8c 3f 1f 83 79 3f
       0.9801196 0.96631 1.097909 0.974657
0000c0 ee fc 82 3f c0 8d 77 3f 34 c1 7a 3f 05 80 7c 3f
       1.0233438 0.9670067 0.97951055 0.9863284
0000d0 e2 7a 80 3f cf b4 7c 3f 3a 3e 89 3f 39 75 7a 3f
       1.0037501 0.9871339 1.0722115 0.9783512
0000e0 71 27 61 3f 5c 3f 7c 3f 40 60 7f 3f c0 92 84 3f
       0.8795081 0.9853418 0.9975624 1.0357285
0000f0 22 b8 77 3f ba 20 92 3f 14 55 79 3f ab b2 86 3f
       0.9676534 1.1416237 0.97395444 1.0523275
000100 d4 74 7f 3f be 07 6d 3f 8f 70 80 3f ae 71 7c 3f
       0.9978764 0.9258994 1.003435 0.9861096
000110 6a 14 82 3f fb 74 8b 3f 7d a2 77 3f 99 1b 7c 3f
       1.016248 1.0895075 0.9673231 0.9847961
000120 83 09 88 3f 03 a0 60 3f 74 38 89 3f ea 55 72 3f
       1.0627903 0.8774416 1.0720353 0.94662344
000130 99 14 7c 3f 23 9e 87 3f 22 c9 82 3f fe f3 84 3f
       0.9846893 1.0595134 1.0217631 1.038696
000140 04 43 88 3f 82 7d 82 3f 54 99 80 3f 74 95 81 3f
       1.0645452 1.0194552 1.0046792 1.0123734
000150 34 85 85 3f 1a ea 7b 3f df e2 7e 3f 06 b2 7d 3f
       1.0431275 0.98404086 0.9956493 0.9909977
000160 82 bd 77 3f 9f 55 80 3f 20 e4 7f 3f cb f0 80 3f
       0.9677354 1.002613 0.99957466 1.0073484
000170 bf 11 81 3f 24 d0 71 3f a2 de 73 3f c1 c6 8c 3f
       1.0083541 0.9445822 0.95261586 1.0998155
000180 3f 4b 75 3f 3e 2e 85 3f 44 4b 81 3f 48 47 8c 3f
       0.9581794 1.0404737 1.0101094 1.0959253
000190 bf 3d af 3f 44 60 ad 3f 79 c6 74 3f fb 13 80 3f
       1.3690718 1.3545003 0.95615345 1.0006098
0001a0 d0 b8 75 3f c5 2f 88 3f 7e b4 74 3f 43 98 7b 3f
       0.95985126 1.0639578 0.9558791 0.9827921
0001b0 aa cb 8b 3f 10 3e 80 3f 6a 3a 73 3f c6 cd 89 3f
       1.0921528 1.001894 0.9501101 1.0765922
0001c0 42 b6 7c 3f 10 84 7b 3f 4f eb 85 3f 4d 63 7a 3f
       0.98715603 0.98248386 1.0462435 0.9780777
0001d0 fe 17 88 3f 12 c1 7d 3f f4 33 88 3f e2 d8 7d 3f
       1.0632322 0.99122727 1.0640855 0.9915906
0001e0 38 df 75 3f 0a f4 83 3f 6f 1a 84 3f da 1e 87 3f
       0.9604373 1.030885 1.0320567 1.055629
0001f0 fc ce 83 3f b2 b5 6b 3f 4d 46 85 3f 47 9e 87 3f
       1.0297542 0.9207412 1.0412079 1.0595177
